assets/final.h5.tflite (tflite, 4840 bytes, 6 tensors)

dense_1/MatMul_bias f4 [20]
0	0x3e110bc5	0.14164646
1	0x3e400fe6	0.18756065
2	0x3e28613f	0.16443346
3	0xbe55c353	-0.20875292
4	0xbf6dd8b2	-0.92908776
5	0x3ee2a100	0.44263458
6	0x3d243401	0.040088657
7	0xbeb70697	-0.35747215
8	0x3f24a513	0.64314383
9	0xbe33cbdb	-0.17558233
10	0xbf2c341e	-0.67267025
11	0x3eaa42d3	0.33254108
12	0x3e848f4a	0.2589057
13	0xbd9f54aa	-0.0777982
14	0x3d83c84f	0.0643469
15	0xbf2199d8	-0.6312537
16	0x3ea793a1	0.3272982
17	0xbe9054cf	-0.28189704
18	0xbf213cc2	-0.62983334
19	0xbeb951c9	-0.3619521

dense_1/kernel/transpose f4 [20, 17]
0	0xbc908df3	-0.017645812
1	0xbb2f067c	-0.0026706746
2	0xbd3ced5d	-0.046124805
3	0x3de79997	0.11308592
4	0x3f159c41	0.5844155
5	0xbfa76e22	-1.3080485
6	0xbf7d61d0	-0.98977375
7	0x4061c3fb	3.5275867
8	0x3f1b6616	0.60702646
9	0xc052be67	-3.2928712
10	0xbc294462	-0.010331245
11	0xbe47edbd	-0.19524284
12	0xbf006e5e	-0.50168407
13	0x403b0995	2.9224598
14	0x4055eb75	3.3424962
15	0xc0420f02	-3.032166
16	0xbe981b27	-0.29708216
17	0x3df7f8b6	0.12107985
18	0x3d3b3cee	0.045712404
19	0x3e592c00	0.21208191
20	0x3d23dfcc	0.04000835
21	0xc01486c2	-2.320725
22	0x3f8c4dfc	1.0961299
23	0x4009368b	2.143954
24	0xbe427d17	-0.1899303
25	0xbfb9071a	-1.4455292
26	0x3ebf0cb7	0.37314388
27	0x3ff70709	1.9299022
28	0x3ece53c9	0.40298298
29	0x3e8af2bb	0.27138314
30	0xc04dd6f2	-3.2162442
31	0xbf1a0ffb	-0.60180634
32	0xbfa09482	-1.2545321
33	0x3e8e54aa	0.2779897
34	0xbd20762d	-0.0391752
35	0x3cf23819	0.029567765
36	0x3b0e8468	0.00217464
37	0x3fc400d9	1.5312759
38	0x3e0a2909	0.13492216
39	0xbcdc518e	-0.026894357
40	0xbf254e00	-0.64572144
41	0x3f1a1be7	0.60198826
42	0xc02ae6f7	-2.670347
43	0xbf8b35b1	-1.087576
44	0x3f91b407	1.1383065
45	0xbeb3010b	-0.34961733
46	0x3fdfebcc	1.7493834
47	0x403429a3	2.8150413
48	0x403288ea	2.7896066
49	0x3f58a459	0.84625775
50	0x3c2dc660	0.010606378
51	0x3ccbbd0c	0.024870418
52	0xbc3ab853	-0.011396485
53	0xbbb542a7	-0.005531627
54	0xbfa8420f	-1.314516
55	0xbfcdd344	-1.6080098
56	0x3e841987	0.25800726
57	0x3fdf60e0	1.7451439
58	0x3fd64a46	1.6741416
59	0xbfd833d0	-1.6890812
60	0x3fb18f54	1.3871865
61	0xbfbdb452	-1.4820654
62	0x3f2a7bdb	0.6659524
63	0xbe300690	-0.17190003
64	0xc06e585a	-3.7241426
65	0xbfaaf849	-1.3357021
66	0xc043b71f	-3.0580518
67	0x3e829776	0.2550618
68	0xbd85061d	-0.06495307
69	0x3d3bb369	0.045825396
70	0xbe18bdd6	-0.14916167
71	0xbf981ba8	-1.188344
72	0x3eafd0f1	0.34339097
73	0xbede7138	-0.43445754
74	0x3d1c6035	0.038177688
75	0x3f5ade6a	0.85495627
76	0xbfc61159	-1.5474044
77	0xbec41dfc	-0.38304126
78	0xbf8e0ff0	-1.1098614
79	0x3e01ca77	0.1267489
80	0x3eabb4a0	0.33536243
81	0x4054879f	3.3207777
82	0x3fe18757	1.7619427
83	0xbfc84510	-1.5646076
84	0x3e4b6720	0.19863558
85	0xbca88879	-0.020572888
86	0xbbca6d04	-0.0061775465
87	0x3c798c32	0.015231179
88	0x3fc95cdb	1.5731462
89	0xbf0563ef	-0.5210561
90	0xbb7721bf	-0.0037709323
91	0xbdd13723	-0.102155946
92	0xbfa5de53	-1.2958473
93	0x3fa5e52d	1.2960564
94	0xc017faa2	-2.3746724
95	0x3fc1708a	1.5112469
96	0xbfe26e70	-1.7689953
97	0xbf3cf1a1	-0.73806196
98	0x40615039	3.5205214
99	0x3f85be21	1.0448648
100	0x4026d9b1	2.6070368
101	0xbeb99d7c	-0.36252964
102	0x3d336f78	0.043807477
103	0xbc827890	-0.01592663
104	0xbcba612d	-0.022751415
105	0xbf9e652d	-1.2374626
106	0xbd1a50f3	-0.037674855
107	0xbd012266	-0.031526946
108	0x3ef0330d	0.4691395
109	0x3fce72b5	1.6128756
110	0xc0115063	-2.2705314
111	0xbf89acac	-1.075582
112	0xbfe6c00c	-1.8027358
113	0x400d3ad8	2.2067165
114	0x3fc2f898	1.5232115
115	0xc02d0220	-2.7032547
116	0xbf9a9e45	-1.207955
117	0xc082a80e	-4.0830145
118	0x3d9c7490	0.0763942
119	0x3e120941	0.14261343
120	0x3caa8355	0.020814577
121	0x3e6795ac	0.22615689
122	0x3f23ad5c	0.639364
123	0xbf9d703e	-1.2299879
124	0x3fae3d4c	1.3612456
125	0x401216ff	2.2826536
126	0xbf31163c	-0.6917455
127	0xbfdedb7d	-1.7410733
128	0x3d39171a	0.045188047
129	0x3fdc35a0	1.7203865
130	0xbf956620	-1.1671791
131	0x3f7a5d87	0.9779896
132	0xc0411a26	-3.017221
133	0xbd344689	-0.04401258
134	0xbe69aa82	-0.2281895
135	0xb9cf7000	-0.00039565563
136	0xbc5f5f40	-0.013633549
137	0xb9bb324e	-0.000357049
138	0x3bb23366	0.005438256
139	0x3f84f91c	1.0388522
140	0x3e5a422c	0.21314305
141	0x3dfa0f0d	0.12209902
142	0xbe381669	-0.17977299
143	0xbff2420f	-1.892641
144	0xbfa9e72b	-1.3273672
145	0xbfbe6792	-1.4875357
146	0xbfb58679	-1.4181663
147	0xbe476a43	-0.1947413
148	0x3fe7faaf	1.8123378
149	0x4018002b	2.3750103
150	0xbfb30538	-1.3985968
151	0x40426a12	3.037724
152	0x3d2cd8c8	0.042198926
153	0x3ae8193d	0.0017707717
154	0xbaad5ad3	-0.001322592
155	0x3c9fc676	0.019503813
156	0xbf01e30c	-0.5073707
157	0x3fc5cae8	1.5452547
158	0x3f2bba0f	0.6708078
159	0x3e71b15e	0.23602816
160	0xc03361a2	-2.802834
161	0xbe00bfc4	-0.12573153
162	0xbe981170	-0.29700804
163	0xc001a3f5	-2.0256321
164	0xbeded50b	-0.43521914
165	0x401491dc	2.3214025
166	0x4017db79	2.3727705
167	0xbfc3909d	-1.5278507
168	0x4061cd38	3.5281506
169	0xbd892a60	-0.066975355
170	0x3c324c00	0.010882378
171	0x3b0226a7	0.0019859464
172	0xbd0543ba	-0.032535292
173	0xbf55ebb2	-0.8356277
174	0xbf80a0bc	-1.0049052
175	0xbd596212	-0.053072043
176	0xbd24ea08	-0.040262252
177	0x40000429	2.000254
178	0xbf86b82c	-1.0524955
179	0xbfa7c5e3	-1.3107265
180	0x3ddcf173	0.1078824
181	0x3fb0e54d	1.3819977
182	0x3e71095c	0.23538727
183	0x3f019eb8	0.5063281
184	0xbb9e2720	-0.0048264414
185	0xc05f7eb4	-3.4921083
186	0xbe8095b6	-0.2511422
187	0xbe00136a	-0.12507406
188	0xbe07284d	-0.13198967
189	0x3e21effd	0.15814205
190	0x3f294a4a	0.6612898
191	0xbfca30bf	-1.5796126
192	0xbf32a5e9	-0.6978441
193	0xbf5c91c5	-0.86159927
194	0x3f7ada1a	0.97989047
195	0x3fa6b26e	1.3023202
196	0xc017a4cd	-2.3694336
197	0x3fc71d87	1.5555886
198	0x3f95ed1f	1.1712989
199	0xbfc74091	-1.5566579
200	0x401c2a17	2.440069
201	0x3ed3e468	0.41385198
202	0xbf9c7ffa	-1.2226555
203	0xbec618db	-0.38690838
204	0xbcdf21f0	-0.027237862
205	0x3a4ca312	0.0007806282
206	0x3cc64f7f	0.024207829
207	0x3f891b9b	1.071155
208	0x3df224ef	0.11823451
209	0x3cb8943f	0.022531627
210	0xbec4e574	-0.3845631
211	0xbfbbd70c	-1.4675002
212	0x3fdf61a9	1.7451679
213	0xbfc2c64a	-1.5216763
214	0x402b275f	2.674278
215	0xc002c138	-2.0430431
216	0xbf22d5d0	-0.636075
217	0x4076b1b1	3.8545954
218	0x3f90800f	1.128908
219	0x40156be2	2.3347096
220	0xbe3481b9	-0.1762761
221	0x3b1a26ff	0.0023521779
222	0xbb069107	-0.002053322
223	0x3cda4a93	0.026646888
224	0xbf1015d9	-0.56283337
225	0x3f4ada9d	0.7923983
226	0x3eb0169e	0.34392256
227	0xbed00cc2	-0.40634733
228	0xc087282c	-4.223654
229	0x3f0d13bc	0.5510824
230	0x3fd0612b	1.6279653
231	0xbf3c6339	-0.735889
232	0xbfeb5e97	-1.8388242
233	0x3f7b9159	0.9826866
234	0x402e0d69	2.7195685
235	0xbf48cb95	-0.7843564
236	0x407b0770	3.922329
237	0x3ebf0078	0.37305045
238	0x3d19da8f	0.03756195
239	0xbc9b0845	-0.018924842
240	0xbb5d8432	-0.0033800718
241	0xbf7b7053	-0.9821827
242	0xbe84f175	-0.25965467
243	0xbeb2bb2c	-0.34908426
244	0x3f9a957d	1.207687
245	0x3ff48075	1.9101702
246	0xc02262b9	-2.5372756
247	0x3dca43be	0.09876202
248	0xbfd53372	-1.6656325
249	0x40565f26	3.3495574
250	0x3c843358	0.016137764
251	0xc074efe8	-3.8271427
252	0xbf424ce6	-0.7589859
253	0xc0651c80	-3.5798645
254	0xbdd342c4	-0.10315469
255	0x3b92a2c8	0.0044749714

dense_2/MatMul_bias f4 [20]
0	0x3f4b074a	0.79308
1	0x3fcbaebf	1.5912703
2	0x3fe17774	1.7614579
3	0x3ebd9369	0.37026528
4	0xbdb22626	-0.086986825
5	0x3eb1998b	0.34687456
6	0x3f3a8cb6	0.7287096
7	0x3e1de7d4	0.15420467
8	0x3e89a922	0.2688685
9	0xbec4de10	-0.3845067
10	0xbc28032b	-0.010254662
11	0x3ed473e1	0.4149466
12	0xbf266c14	-0.65008664
13	0x3f3f9b2c	0.7484615
14	0x3ddb8f8f	0.10720741
15	0xbf3c4632	-0.7354461
16	0x3f811a8b	1.0086225
17	0xbf7c50d5	-0.9856084
18	0x3ed8e717	0.42363808
19	0xbd51b559	-0.051198337

dense_2/kernel/transpose f4 [20, 20]
0	0x3ed76897	0.42071983
1	0xbc3e339f	-0.011608987
2	0xbca4eefe	-0.020133492
3	0xbea97dc8	-0.33103776
4	0xbe52c06b	-0.20581214
5	0xbe9e5714	-0.3092581
6	0x3c7fbbcf	0.015608742
7	0xbe5d964c	-0.21639365
8	0x3eec9df2	0.46214253
9	0xbe0f94f9	-0.14021672
10	0xbe1dd56b	-0.15413444
11	0xbe3d324b	-0.18476216
12	0xbef2fe47	-0.47459623
13	0xbf0f988b	-0.5609214
14	0xbeaa38a1	-0.3324633
15	0x3eddb9cb	0.4330581
16	0x3e09e644	0.13466746
17	0x3d947821	0.07249475
18	0xbeda5de9	-0.42649773
19	0x3e6bca44	0.23026377
20	0x3f124230	0.57132244
21	0x3dbcb3b7	0.092139654
22	0xbe9f869b	-0.31157383
23	0x3e7a29ae	0.24429962
24	0x3f421076	0.7580637
25	0xbe80e773	-0.25176582
26	0x3e1e8090	0.1547873
27	0xbf036bba	-0.5133625
28	0xbebaac72	-0.3645969
29	0xbeacb950	-0.33735132
30	0x3f596cd1	0.84931666
31	0x3e30e97a	0.17276564
32	0x3e516a6d	0.20450754
33	0x3ea3da71	0.32002595
34	0x3eb01adb	0.3439549
35	0x3ee11557	0.43961594
36	0x3eafe5d3	0.3435503
37	0x3c4746e0	0.012162894
38	0x3ed83cfa	0.4223402
39	0x3f84264e	1.032419
40	0x3e03d6f5	0.12874968
41	0xbdbd8232	-0.092533484
42	0xbe18ed7f	-0.14934348
43	0x3e15f5e5	0.14644583
44	0x3e74e3d4	0.23915035
45	0xbda372c0	-0.07980871
46	0x3e97b376	0.29629105
47	0x3be2456a	0.0069052475
48	0x3ec67673	0.38762245
49	0x3f507e4a	0.814427
50	0xbd5a72b5	-0.05333205
51	0x3e24595d	0.16049714
52	0xbe4e7a7b	-0.2016391
53	0x3f35126c	0.70731235
54	0x3f039914	0.51405454
55	0xbe025398	-0.12727201
56	0xbe09aadf	-0.13444088
57	0x3e57dcf4	0.2108038
58	0xbd56bfc4	-0.052428976
59	0x3db5db69	0.0887974
60	0xbea9014f	-0.3300881
61	0x3e9cca1f	0.30622956
62	0xbd88a08f	-0.06671249
63	0xbd1a141b	-0.03761683
64	0xbef1d817	-0.47235176
65	0x3d5b21d4	0.053499058
66	0x3e5d48a3	0.2160974
67	0x3e412a47	0.18863784
68	0x3ec00535	0.37503973
69	0x3f4f748c	0.8103721
70	0x3cad09f1	0.021122904
71	0xbe1e99ef	-0.15488409
72	0x3e8519c9	0.25996235
73	0x3eab11ba	0.33411962
74	0x3cbdfc15	0.023191491
75	0xbe3802ed	-0.17969866
76	0xbf02556a	-0.5091158
77	0x3d4e937c	0.05043362
78	0xbd594200	-0.053041458
79	0xbf077f9e	-0.52929103
80	0x3d802a0b	0.06258019
81	0x3db61da2	0.08892371
82	0xbe7801e3	-0.2421947
83	0x3dcff72c	0.10154566
84	0x3d6ac060	0.05731237
85	0xbe363c20	-0.17796373
86	0x3e8027da	0.25030404
87	0x3e3b829a	0.1831154
88	0xbea5ce3b	-0.32383904
89	0xbf846e4b	-1.0346159
90	0x3dc7a075	0.097474016
91	0x3f0873b4	0.5330155
92	0x3eea0d86	0.45713443
93	0xbf01bb0a	-0.50676024
94	0x3eaec56c	0.34134996
95	0x3f2c4e9c	0.6730745
96	0x3d5dd6d4	0.054159954
97	0xbb0cf548	-0.0021508504
98	0xbee0828d	-0.43849602
99	0x3eb40ac9	0.35164478
100	0x3ea80b95	0.32821336
101	0x3e6dcee7	0.23223458
102	0xbee23efb	-0.44188675
103	0xbe721230	-0.2363975
104	0xbe5c8d4a	-0.21538273
105	0xbeba204a	-0.3635276
106	0x3e81110b	0.25208315
107	0x3f10b975	0.56532985
108	0x3f706097	0.93897384
109	0xbcf6f2ba	-0.030145038
110	0x3ed78672	0.4209476
111	0xbdd52ebc	-0.104093045
112	0xbf222fba	-0.63354075
113	0xbec8209e	-0.39087385
114	0x3f19856c	0.5996921
115	0x3c85ef5a	0.016349483
116	0x3f091729	0.53550965
117	0xbe84edf1	-0.25962785
118	0xbe3cbf81	-0.18432428
119	0xbd5be05b	-0.05368076
120	0x3ed219b9	0.4103525
121	0xbe1637d1	-0.1466973
122	0x3ee7d141	0.45276836
123	0xbf2589ea	-0.64663565
124	0xba022381	-0.0004964397
125	0x3f678a58	0.9044547
126	0xbe390173	-0.18066959
127	0xbe04779f	-0.12936257
128	0x3f8a5dd6	1.0809886
129	0x3d671187	0.0564132
130	0xbf55e7c9	-0.835568
131	0x3dd058af	0.10173165
132	0x3f277154	0.654073
133	0x3df1f25f	0.11813807
134	0xbf1ecc7e	-0.6203078
135	0xbf05c357	-0.5225119
136	0x3ef15d89	0.47141674
137	0xbd1721b0	-0.03689736
138	0x3dc8a2f3	0.09796705
139	0x3dcecadb	0.10097285
140	0x3eb75737	0.35808727
141	0x3e419e64	0.18908077
142	0xbccd6e79	-0.025077092
143	0x3f16ea1b	0.58950967
144	0xbe1b3951	-0.15158583
145	0xbe70047b	-0.23439209
146	0x3eac344c	0.3363365
147	0x3d64d51d	0.055867303
148	0xbde4b53c	-0.1116738
149	0xbee21af0	-0.44161177
150	0x3f849ca2	1.03603
151	0xbddea0d5	-0.1087052
152	0xbe37c8c2	-0.17947677
153	0xbf1fc44a	-0.6240889
154	0x3ec34fab	0.3814672
155	0x3eabe9d5	0.33576837
156	0x3e0a945b	0.13533156
157	0xbde77a41	-0.11302615
158	0xbead96c1	-0.3390408
159	0x3f01e95e	0.50746715
160	0xbd2e5c78	-0.042568654
161	0x3e83d6fb	0.25749955
162	0x3ed565e7	0.41679308
163	0xbd7de5a0	-0.061986566
164	0xbc1b11e0	-0.009464711
165	0x3ebad4c2	0.36490446
166	0x3cacbacd	0.021085167
167	0x3e8fb505	0.28067794
168	0x3f5270e5	0.82203513
169	0x3f20fc54	0.6288502
170	0xbf692cfd	-0.9108427
171	0xbd2fd583	-0.04292823
172	0x3d7d2e1d	0.061811555
173	0x3ec8a28e	0.3918652
174	0x3d4595e5	0.048238654
175	0xbf5a7648	-0.8533673
176	0x3e573298	0.21015394
177	0xbe6b94d5	-0.23005994
178	0xbcd12a55	-0.02553288
179	0xbd3d0345	-0.046145696
180	0x3e068220	0.13135576
181	0xbd9686a1	-0.07349897
182	0xbe31559b	-0.17317812
183	0x3cf6e15f	0.030136762
184	0xbe1838c5	-0.14865406
185	0xbe4cba7f	-0.19993018
186	0x3e59ceeb	0.21270339
187	0xbde06e59	-0.10958547
188	0x3f6580b4	0.8964951
189	0x3bb5303b	0.005529431
190	0xbda599a8	-0.08085948
191	0xbe231d14	-0.15929061
192	0x3ea7d006	0.32775897
193	0xbeb28abf	-0.3487148
194	0x3eafe641	0.34355357
195	0x3db83a32	0.08995475
196	0xbf0fc394	-0.56157804
197	0xbf178b9c	-0.591974
198	0x3e67a51a	0.22621575
199	0xbe254917	-0.16141163
200	0x3df21c5a	0.11821814
201	0xbd4bcacc	-0.04975395
202	0x3e94ec6f	0.29086635
203	0xbdfff929	-0.124986954
204	0x3ce52c81	0.027975323
205	0x3e094abe	0.13407418
206	0xbe4df19b	-0.20111696
207	0xbd52a5f6	-0.051427804
208	0xbedc79c3	-0.43061647
209	0xbde2fcaf	-0.11083352
210	0x3e59072b	0.2119414
211	0xbd27374e	-0.040824227
212	0x3e57b31f	0.21064423
213	0x3ead3042	0.3382588
214	0x3e2e0cce	0.16997072
215	0xbeb18cbb	-0.3467768
216	0xbeb7f648	-0.35930085
217	0x3d556ee0	0.05210769
218	0xbec4e067	-0.38452455
219	0xbd439f95	-0.04775961
220	0xbe990b15	-0.29891267
221	0x3e2317ca	0.15927044
222	0xbe464893	-0.19363622
223	0x3d9d025e	0.07666467
224	0x3bc898e4	0.0061217416
225	0x3dddd83e	0.108322605
226	0xbc2a8eff	-0.0104100695
227	0xbc337eed	-0.010955554
228	0x3f6f4bf8	0.93475294
229	0x3f3ab0c4	0.7292597
230	0xbf643b0e	-0.8915261
231	0x3e757ea1	0.23974086
232	0xbd9be07a	-0.07611175
233	0x3ed0ae64	0.4075805
234	0x3eb30cd6	0.3497073
235	0xbe36b263	-0.17841487
236	0xbf03f7cf	-0.5155
237	0x3d718004	0.058959976
238	0x3c7a84c7	0.015290446
239	0xbe234468	-0.15944064
240	0x3eeba183	0.4602166
241	0x3f0d2db7	0.5514788
242	0x3e15309a	0.14569321
243	0xbf1c4120	-0.6103687
244	0x3e486c35	0.19572528
245	0x3efe445f	0.49661538
246	0xbdddb3a8	-0.10825282
247	0xbe0ad137	-0.13556372
248	0x3e8b116d	0.27161732
249	0xbf6a8ae0	-0.91618156
250	0x3ebede2a	0.37278873
251	0x3e14c69b	0.14528887
252	0x3eb0a009	0.34497097
253	0xbf17cf88	-0.5930104
254	0x3dfe4632	0.124157324
255	0x3e0f8b9f	0.14018105

dense_3/MatMul_bias f4 [4]
0	0xbd324396	-0.043521486
1	0xbf4e0244	-0.8047221
2	0x3e8beb5b	0.27328
3	0x3ef44be8	0.47714162

dense_3/kernel/transpose f4 [4, 20]
0	0x3f35e53f	0.71052927
1	0x3dabb50b	0.083841406
2	0x3ea22bb2	0.31673962
3	0xbf020c0a	-0.5079962
4	0x3f3aaf63	0.7292387
5	0x3cec2237	0.028824909
6	0xbf0002b4	-0.50004125
7	0x3f2b130b	0.6682593
8	0xbed2a524	-0.41141617
9	0x3c2c1443	0.010502878
10	0x3e2ec748	0.17068207
11	0xbe95df60	-0.29271984
12	0x3ecb92fe	0.39760584
13	0x3f2d1201	0.67605597
14	0xbeb321a6	-0.3498661
15	0xbf27d865	-0.65564567
16	0xbf1d04d6	-0.61335504
17	0x3f868ba2	1.0511363
18	0xbed56463	-0.4167815
19	0x3f2452a2	0.6418859
20	0xbda52e69	-0.08065493
21	0xbf6754c6	-0.9036373
22	0xbfc2cdc7	-1.5219048
23	0x3dcae3dc	0.09906742
24	0x3e01f0bf	0.12689494
25	0x3d894a2f	0.067036025
26	0x3ed4e48f	0.41580626
27	0xbe93bafc	-0.28853595
28	0x3f17f589	0.5935903
29	0x3f1feb52	0.62468445
30	0x3ed31d6d	0.41233388
31	0x3de45883	0.11149695
32	0x3f886901	1.0657045
33	0xbd641a63	-0.055689227
34	0x3f200e23	0.6252157
35	0x3f195340	0.59892654
36	0xbefa8165	-0.48926845
37	0x3e5363cd	0.2064354
38	0xbea22ee8	-0.31676412
39	0x3ed701e2	0.41993624
40	0xbec93a35	-0.3930222
41	0xbe04b785	-0.12960632
42	0x3e9e19b9	0.30879
43	0x3ebf5e57	0.37376663
44	0x3e3465cd	0.17616959
45	0xbf9028c7	-1.1262444
46	0x3ee3774e	0.4442696
47	0xbef10f0d	-0.47081795
48	0x3ed2e068	0.41186833
49	0xbea0e678	-0.31425834
50	0x3eafcfee	0.34338325
51	0x3e45521e	0.19269606
52	0xbe9c29f7	-0.30500767
53	0xbe81bc7a	-0.2533911
54	0x3efe72a1	0.4969683
55	0xbeac3a13	-0.33638057
56	0xbddf02eb	-0.108892284
57	0xbee7d5af	-0.45280215
58	0x3eb88aab	0.36043295
59	0xbe5f80e3	-0.2182651
60	0xbd8e9836	-0.06962626
61	0xbf448097	-0.7675871
62	0x3f14c204	0.58108544
63	0x3e2296d5	0.1587785
64	0xbdf0deb9	-0.11761231
65	0xbe816885	-0.25275055
66	0xbfba6f74	-1.4565263
67	0xbec7f5f2	-0.3905483
68	0x3f20f576	0.62874544
69	0x3eb26b8a	0.3484767
70	0x3ddc66f9	0.10761828
71	0x3f3d9349	0.74052864
72	0xbf01d387	-0.5071339
73	0x3efb63ab	0.49099478
74	0xbe9775d6	-0.2958209
75	0x3f087245	0.5329936
76	0x3f1f3b79	0.62200123
77	0xbf22f946	-0.6366161
78	0xbeb51906	-0.35370654
79	0x3ea2e1e3	0.31812963
