assets/graph.tflite (tflite, 13764 bytes, 8 tensors)

dense_29/MatMul_bias f4 [30]
000000 a4 36 90 3f 45 8b 8f 3f d0 92 33 bf 6d f8 1d 3f
       1.1266675 1.1214377 -0.70145893 0.6170719
000010 ee 2a ee be de 79 3f be ba ba 0f c0 1d bf aa 3f
       -0.46517128 -0.18698832 -2.245772 1.3339573
000020 16 11 f2 bd cd dc 11 c0 79 1a 08 c0 03 4b d3 3e
       -0.11819665 -2.2791016 -2.1266158 0.41268167
000030 a7 70 ef 3d ef 54 04 40 b9 77 c7 3f c3 b9 52 bf
       0.116914086 2.067684 1.5583411 -0.823147
000040 df df d4 be d6 4c 80 3f bb 5e 87 bd a8 48 1e be
       -0.4157705 1.0023448 -0.06609865 -0.15457404
000050 c2 2e e4 3f 70 fe 36 c0 25 c0 51 bf 0a 24 b8 3f
       1.7826769 -2.8592796 -0.81933814 1.4385998
000060 2d 7c 3d 3f 9a 96 e8 be e4 11 9d bc 1d 9e 0f 3f
       0.740176 -0.454274 -0.01917357 0.56100637
000070 71 ca 07 c0 a7 4d 08 bf
       -2.121731 -0.5324349

dense_29/kernel/transpose f4 [30, 30]
000000 cd c8 e8 3c 5f 72 53 bd 3b 9f 0b 3d e6 d1 75 bd
       0.028416062 -0.051622745 0.0340874 -0.060014628
000010 f5 df 94 bd 1e 9b fa 3d bb 4f f5 bc df 64 04 3e
       -0.07269279 0.122366175 -0.029945245 0.12929104
000020 88 26 43 be c0 79 c6 3c 7c 13 1a 3e ca c9 da 3e
       -0.19057667 0.024227977 0.15046495 0.42732078
000030 f1 4e 17 41 de 24 1b c0 2f ba 6e c0 03 43 01 c1
       9.456773 -2.4241252 -3.7301137 -8.07886
000040 86 9e 93 c1 9a c6 bf c0 18 1d 63 41 f2 db 99 3f
       -18.452404 -5.9929934 14.194603 1.2020247
000050 dd 37 c5 40 29 03 80 3f d2 95 ae 3e 14 2b 03 40
       6.1630692 1.0000964 0.3409868 2.0495043
000060 ea d5 18 40 06 64 8f bf 7e 13 16 41 a6 fb 68 c0
       2.3880563 -1.12024 9.379759 -3.6403594
000070 c8 ff c5 3e 83 6e 1a 41 a5 13 9e bc 05 4a 2e 3e
       0.38671708 9.65198 -0.019296477 0.17020424
000080 88 ae 8b be e7 10 ab 3c 79 c2 83 be 1c db de 3d
       -0.27281594 0.020882083 -0.25734308 0.108816355
000090 0b 3e 96 3e 47 0b f8 3d 8f 66 7d 3e e1 a3 17 3e
       0.2934421 0.12111526 0.24746154 0.14808609
0000a0 eb bc b4 bf fc 91 33 c0 e4 76 80 c0 7c 8b 20 3f
       -1.4120153 -2.8057852 -4.014513 0.62712836
0000b0 ac de c5 c0 86 3f 0f c1 0a 3b 72 c1 8f 16 58 c0
       -6.1834316 -8.953009 -15.139414 -3.3763769
0000c0 99 60 8a 40 b1 3c 7f 3f 8e 49 5c 40 98 aa 12 41
       4.3242917 0.9970198 3.4419894 9.166649
0000d0 00 04 42 bf 2e 45 1f 3e 08 d5 02 40 5f dc d7 bf
       -0.75787354 0.15553734 2.0442524 -1.6864127
0000e0 bc 0f 50 be c6 1d 17 40 40 99 84 bf df 06 9e 40
       -0.20318502 2.3611922 -1.0359268 4.9383388
0000f0 0e df b3 3d c8 3b 20 3e 9e a5 d1 be de 4f 42 3e
       0.08782779 0.15647805 -0.40946668 0.1897578
000100 a9 0e 85 3e d2 97 a3 3e 5d 55 93 3e 13 a0 e6 be
       0.25987747 0.31951767 0.28776065 -0.45044002
000110 72 86 c8 bd f5 55 fb bc f9 f6 98 bf ef 83 8a be
       -0.097912684 -0.030680636 -1.195037 -0.27053782
000120 c4 61 13 c1 45 b8 c5 be e0 b1 05 c1 81 89 8b bf
       -9.211369 -0.3861715 -8.3559265 -1.0901338
000130 d9 d6 a6 3f d1 41 73 c0 1b f7 42 40 a8 ca db 3f
       1.3034316 -3.800892 3.0463321 1.7171221
000140 92 44 03 3f 34 f1 8b 3f f7 a4 0e bf 0c af b5 c0
       0.51276505 1.0932984 -0.55720466 -5.677618
000150 05 b9 84 40 dc 3d f0 bf 32 80 f1 c0 d6 23 0c c0
       4.1475854 -1.8768878 -7.546899 -2.1896873
000160 2d 4a 31 c0 13 1f 73 c0 40 70 16 be 2c 09 d9 3c
       -2.7701523 -3.7987716 -0.14691257 0.026493631
000170 25 55 9d be e8 45 10 3e ce 95 f0 bd 81 f2 81 3f
       -0.30729023 0.14089167 -0.11747323 1.0152131
000180 91 be 38 be 37 16 63 3e a6 b4 76 be 4c 18 33 bf
       -0.18041445 0.22176443 -0.2409235 -0.6995895
000190 88 da 67 c0 70 ab 67 bf 0a 47 a7 3f d6 a2 01 3f
       -3.622713 -0.9049597 1.3068554 0.5063909
0001a0 26 7a 0a c1 d8 25 87 40 e2 dd ac c0 49 79 a7 c0
       -8.654821 4.2233696 -5.4020853 -5.2335553
0001b0 7b 0c 87 40 04 16 20 c0 df b7 54 40 8d 4d f5 bf
       4.2202735 -2.5013437 3.3237226 -1.9164292
0001c0 28 35 c8 c0 c9 be a2 bf 98 20 3d c0 67 3b 66 c0
       -6.256489 -1.2714473 -2.9551144 -3.5973756
0001d0 41 09 fc c0 a5 ca ae bf a7 4d ed 3d d3 41 0a be
       -7.8761296 -1.3655592 0.11587077 -0.13501672
0001e0 74 46 67 bd c2 0d 2f 3f 6c 17 13 3f 62 b3 70 be
       -0.056463674 0.6838037 0.57457614 -0.23505929
0001f0 06 87 ec 3e f7 5b 01 be 62 67 94 bf 39 5c 53 3f
       0.46196765 -0.12632738 -1.159405 0.82562596
000200 e3 bd 46 3f 9d 1c 93 3e c3 7e 46 c0 5d dc 51 bf
       0.77633494 0.28732768 -3.101487 -0.8197687
000210 e8 e7 2d 40 cb a2 86 c0 d9 86 9a c0 d1 f5 2c 3f
       2.7172794 -4.207372 -4.828961 0.67562586
000220 d4 cc 2a bf b9 c7 cd bf 9c 52 76 3e ba b8 67 c0
       -0.6671879 -1.6076576 0.2405495 -3.6206498
000230 82 c6 c1 3f 4c b2 14 c0 4c 22 7d c0 15 7b 95 bf
       1.5138705 -2.3233824 -3.9552183 -1.1678187
000240 be df 44 bf 6c 3e 4c bf a9 43 31 c0 77 a5 4a c0
       -0.76903903 -0.7978275 -2.7697546 -3.1663492
000250 08 c0 e4 3f 05 bb 47 3e 00 e4 bb 3d ed 61 86 bf
       1.7871103 0.19504936 0.09174347 -1.0498635
000260 ca c7 a7 3d 81 92 18 3f 29 e4 e7 be b8 15 00 3f
       0.081924036 0.5959855 -0.4529126 0.5003314
000270 fe 8a 19 bf 28 67 8c 3e a4 b8 85 bf 94 fe a0 3f
       -0.5997771 0.27422452 -1.0446973 1.2577691
000280 a1 df 05 3f 77 31 75 3f 8f 1f 66 40 fd 42 b8 3f
       0.52294356 0.957786 3.5956762 1.4395443
000290 13 d3 91 40 0c 83 9f c0 54 db 93 c0 a6 06 d3 3f
       4.557016 -4.984747 -4.6205235 1.6486404
0002a0 36 13 bb bd ce 2b 0a 40 21 8b e0 3f 0d a1 c1 3f
       -0.091345236 2.1589236 1.7542459 1.5127274
0002b0 bf 30 c1 bf ad 27 68 3f 82 36 2d c0 1d 31 e1 bd
       -1.5093001 0.9068554 -2.706452 -0.10995696
0002c0 17 c5 79 40 29 89 7e 40 92 8d 69 be b6 a4 dd 3f
       3.9026544 3.9771216 -0.22807911 1.7315891
0002d0 76 a3 bb 3e 96 25 20 bd 48 7d 51 3e 2c b2 b8 bd
       0.36648148 -0.039098345 0.20457947 -0.090183586
0002e0 93 17 46 be f0 e8 57 be 67 07 d3 be 67 2c 89 be
       -0.1934493 -0.21084952 -0.41216585 -0.2679169
0002f0 46 a3 55 bf 12 e6 ae 3e ed 58 32 40 cd f8 10 40
       -0.8345226 0.34159905 2.7866776 2.2651856
000300 e4 8e ee c0 d3 9b d5 3e 85 6b 4b 40 a0 13 6d bf
       -7.4549427 0.41720447 3.1784375 -0.9260807
000310 72 01 dc 40 7d 7f a0 40 4a bd 90 bf 16 11 aa 3f
       6.8751764 5.0155625 -1.1307766 1.3286464
000320 9e 57 cf c0 d4 11 82 40 3e 3f 4b 40 f4 1a 6f 3d
       -6.4794455 4.0646763 3.175735 0.058375314
000330 b7 75 11 3f 52 aa 53 3f 57 a8 78 40 83 fe 14 40
       0.56820244 0.82681763 3.8852746 2.3280342
000340 b9 24 e3 3f 49 1c 8c c0 57 87 87 bb cd e8 cd 3d
       1.7745582 -4.378453 -0.004136007 0.10054169
000350 74 7c 4c bc a7 4d 2e bd 52 39 92 bd 08 77 88 be
       -0.012480844 -0.042554524 -0.07139839 -0.26653314
000360 6d 78 64 3d 86 a2 fe 3e e6 69 28 3e cb 43 66 3d
       0.05577891 0.4973337 0.16446647 0.056216996
000370 c4 89 9c c0 ca 34 7f bf c0 3b e7 c0 4f 83 27 c0
       -4.891817 -0.99689925 -7.2260437 -2.6173894
000380 d7 7e aa 40 a7 5d b2 40 68 43 50 41 32 95 6c 40
       5.3279834 5.573932 13.016457 3.6966062
000390 38 d1 39 c1 99 b6 11 40 18 88 9a c0 a4 a9 23 bf
       -11.613579 2.2767699 -4.829113 -0.63930726
0003a0 0b 51 94 3f b3 67 c5 3e f8 1c 99 bc 5c f9 d2 40
       1.1587232 0.3855568 -0.018690571 6.5929394
0003b0 95 3b 2c c1 c9 76 67 3f a8 96 f3 bf 0c 71 e2 c0
       -10.764546 0.90415627 -1.9030352 -7.0762997
0003c0 2e d0 cf bd 72 b1 0a 3e eb 77 2e 3f a5 74 0b be
       -0.10147129 0.13544253 0.6815173 -0.13618715
0003d0 ff 86 3b be f5 ff a8 be c2 8a 08 bd d4 ef bf 3f
       -0.18313216 -0.3300778 -0.033335455 1.4995065
0003e0 cd d9 7f bf 92 b1 6d 3f 6b b1 68 c0 af c1 c6 bd
       -0.9994171 0.92849076 -3.6358287 -0.09704911
0003f0 7f af 32 40 52 3b 78 bf ac b4 8a 40 f9 8c 6d 40
       2.7919614 -0.96965516 4.3345547 3.7117293

dense_30/MatMul_bias f4 [30]
000000 c6 30 55 be f0 5d 9e 3e ba dc 8f be 5e a1 9e bd
       -0.20819387 0.30931044 -0.28098089 -0.07745622
000010 5e 15 ca be 7f a4 5f be 2a 36 1a bd 0b 08 0a be
       -0.39469427 -0.21840094 -0.03764931 -0.1347963
000020 8f ed d2 3d 49 8b a9 3d 15 73 2d be 4b 76 9b be
       0.10299217 0.0827852 -0.16938432 -0.30363688
000030 08 4e 07 be c1 3e f3 bc fa 9a 78 3e 8c 50 79 be
       -0.1321336 -0.02969301 0.24277869 -0.24347132
000040 d3 f7 b5 be bd ea f5 bb aa e0 95 be 91 63 86 3e
       -0.35540637 -0.0075047896 -0.29272968 0.26247838
000050 ba d4 94 3d 63 0d 50 3e b4 6b dd bd 5c 62 83 be
       0.07267137 0.20317607 -0.10811558 -0.2566098
000060 76 27 86 3e 95 5c bb be fb af 03 be c9 1f 54 3e
       0.2620198 -0.36594072 -0.128601 0.2071525
000070 9c 65 2c 3e 49 7d c8 be
       0.16835636 -0.39158085

dense_30/kernel/transpose f4 [30, 30]
000000 2b 54 24 3f 03 8d 96 3f e4 21 1d c0 da de 79 bf
       0.6419093 1.1761783 -2.4551935 -0.9760567
000010 21 f7 94 bf a7 56 24 3f 5b 7d eb bf 3d ed 97 bc
       -1.1637918 0.6419472 -1.839763 -0.018545741
000020 f7 fb 48 bf 06 ce cb 3f de eb e6 bf 43 9e 06 bf
       -0.7850947 1.5922248 -1.8040731 -0.5258524
000030 6e 6d 2d bd d6 71 c4 3f 13 b7 11 3f f5 9e a5 3f
       -0.04234069 1.534724 0.56919974 1.2939135
000040 21 9f 0a 3f 4c d7 0d 3f c2 99 47 3e 35 e1 84 be
       0.5414906 0.5540664 0.19492248 -0.2595307
000050 b7 55 ef 3c 72 3d 68 bf 4a 64 d3 be b4 5e 31 3f
       0.029215677 -0.9071876 -0.41287452 0.6928513
000060 17 bf f1 be f8 c2 47 bf 82 b4 c1 3d 48 06 96 3d
       -0.47216102 -0.78031874 0.09458257 0.07325417
000070 c7 69 d7 bf bd b4 ac bf e5 c5 aa bf 62 6e af be
       -1.6829156 -1.3492657 -1.3341643 -0.34263903
000080 92 22 6d bf b6 2e 68 bf 55 36 6c bf 3b b5 da 3f
       -0.92630875 -0.90696275 -0.92270404 1.7086557
000090 91 c6 88 3f 00 85 90 3f 72 03 2f bf 8f ec 89 be
       1.0685598 1.1290588 -0.6836463 -0.26938292
0000a0 a6 93 b0 be cd bb 3e 3e 4e c2 66 3f 49 ad 86 bf
       -0.34487647 0.18626328 0.90140235 -1.0521632
0000b0 bd 23 4b 3e 98 93 69 3f c0 36 8a 3e a3 c6 65 3f
       0.19837852 0.91240835 0.26994896 0.8975622
0000c0 31 7f 1e 3f 36 5c bf 3e 46 55 42 3f 07 9d 86 bf
       0.6191283 0.3737504 0.75911367 -1.0516671
0000d0 67 ac 1e bf 22 81 23 3e d4 e0 ea 3f e2 38 8a 3c
       -0.61981815 0.15967229 1.8349862 0.016872827
0000e0 94 45 31 bf 77 8a 14 3f 5b 63 84 3e a3 fc 53 bf
       -0.6924679 0.5802378 0.25857052 -0.8280737
0000f0 d0 d7 1e c0 f0 25 9d 3d 2e fb 89 3f 5c f4 2c 3f
       -2.4819221 0.07673252 1.0779779 0.6756036
000100 6c 72 66 3f 94 63 06 bf cc 25 75 bf 10 55 9b 3e
       0.90018344 -0.52495694 -0.957608 0.30338335
000110 e5 2e 8c bf 17 d5 e6 be 16 a5 22 3e 78 d0 96 3e
       -1.0951811 -0.4508445 0.15883288 0.29455924
000120 ec df 84 be 35 1d b5 bf 9e 30 88 be bc 72 be bf
       -0.2595209 -1.4149538 -0.26599592 -1.4878764
000130 4a ac 23 3e 56 5b 7f be 62 95 63 3f fb 82 f0 3e
       0.15983692 -0.24937186 0.88899815 0.4697493
000140 57 4a 80 3e 29 cf c7 3d c9 73 d1 bf 09 b7 08 3e
       0.25056717 0.097563095 -1.636346 0.13351072
000150 0e 98 ca 3e 46 35 08 bf 2d 09 81 3f 46 4c 2e c0
       0.39569134 -0.5320629 1.0080925 -2.7234054
000160 11 80 05 3f 77 7b b5 3f 87 0e b1 be 42 32 34 3e
       0.5214854 1.4178303 -0.34581396 0.17597297
000170 83 48 35 3f e2 d5 e6 3e 48 5a 9e 3f f1 e7 99 bf
       0.7081377 0.45085055 1.2371302 -1.2023908
000180 40 8e 88 bf 18 72 9d bd df c6 b1 be 43 a0 78 3e
       -1.0668411 -0.07687777 -0.3472204 0.24279885
000190 ea 9e 88 3e d8 bf e5 bf bf cc 30 3f 9c db 80 bf
       0.26683742 -1.7949171 0.6906242 -1.006702
0001a0 4a ef c7 be 8a 43 7c bf f2 be fa 3e d7 6d 7d bf
       -0.3904975 -0.98540556 0.48973805 -0.9899573
0001b0 44 24 50 3f 2f af 4f bf d7 0b 49 be 04 ff c0 3f
       0.81305337 -0.81126684 -0.19633423 1.5077825
0001c0 5a 69 c7 3e 2f 2a 8c 3e ae 3a a2 bd ee ef 21 3d
       0.38947564 0.27375934 -0.079213485 0.039535455
0001d0 5a ac b1 3f 40 cc 20 bf bf 30 b5 3f aa b3 2d 3e
       1.3880723 -0.6281166 1.4155501 0.16963068
0001e0 6e a5 db 3f 58 61 83 3f d2 97 89 3e de bd c6 3d
       1.715986 1.0264082 0.26873642 0.09704183
0001f0 eb a2 ba 3e f9 ab 82 bf 6d 58 12 3e 55 2a 63 bf
       0.36452422 -1.0208732 0.14291544 -0.8873647
000200 50 4d ab 3c e3 b5 50 be be 11 37 be a4 b2 36 bd
       0.020910889 -0.20381884 -0.17877862 -0.04460396
000210 fe 03 c0 bf 86 01 e1 3f fd 2a a4 bb 07 3c ef be
       -1.5001218 1.757859 -0.0050100074 -0.46725485
000220 82 39 2a be e5 bf 08 bf a0 d6 5b bf f3 3b 39 bf
       -0.166235 -0.5341781 -0.85874367 -0.723571
000230 cd b7 b8 be 33 d4 3d 3f 79 7c 9e be a5 04 8d 3f
       -0.3607773 0.74151915 -0.3095434 1.1017042
000240 b1 21 61 bf 7c 4b 02 3f 17 85 02 3f 8a e1 e7 3e
       -0.87942034 0.5089643 0.5098433 0.4528926
000250 8d 24 ed be 41 38 15 3f 5a 0f a9 bf 94 6f f4 3e
       -0.4631695 0.5828896 -1.320781 0.47741377
000260 f3 8e 98 3f 06 18 75 3e 61 44 79 3e 87 1c 0f bf
       1.1918625 0.23934945 0.2434249 -0.55902904
000270 10 09 a6 be a8 87 2c 3f 7b fe 54 bd 94 62 3c bf
       -0.3242879 0.67394495 -0.052000504 -0.7358792
000280 9e 85 2e 3f a9 ac c9 3e d4 36 d8 be 8e 3d 0c c0
       0.68172634 0.39389542 -0.4222933 -2.191257
000290 6b 3d 11 bf cf 76 63 bf e5 06 cf be 57 59 7e 3e
       -0.5673434 -0.8885316 -0.40434948 0.24838768
0002a0 17 93 55 3f 03 56 3e bf e4 45 35 3e 8e 93 8d 3f
       0.83427566 -0.74349993 0.17702442 1.1060655
0002b0 d5 50 48 bd a6 63 33 3e c8 29 86 3e 35 0b fc bd
       -0.048905212 0.17518482 0.26203752 -0.12306825
0002c0 8c 9d 84 3f 25 cd e7 bf 6e 89 97 3f 90 4b ab 3f
       1.036058 -1.810948 1.1838815 1.3382435
0002d0 42 c2 a2 bf e7 8d 66 bf 9d 1e 09 3f fd 1d 21 3f
       -1.2715533 -0.90060276 0.5356234 0.62936383
0002e0 1c f9 99 bf 12 a5 ac bc d0 50 bd bf ae 88 56 3f
       -1.2029147 -0.021074805 -1.4790287 0.83802307
0002f0 12 31 c7 3e bb 6f c6 be f8 c9 40 bf 35 69 87 3f
       0.38904625 -0.3875712 -0.7530818 1.0578982
000300 27 e0 6e be d2 96 16 c0 9c 95 6e 3e e6 72 30 bf
       -0.23327695 -2.3529553 0.23299259 -0.6892532
000310 bc 66 85 bf 7b 01 f6 3d 59 d8 10 bf 58 36 35 bf
       -1.0421977 0.12012001 -0.5658012 -0.70786047
000320 e7 e4 58 3e 62 1c 8e 3e f6 3f 5b 3d db 98 5c 3e
       0.2118107 0.2775603 0.053527795 0.21542685
000330 88 7b 03 3f 9d e7 8d 3e 36 3f 02 3f 67 22 c1 bd
       0.5136037 0.2771577 0.508777 -0.0943039
000340 32 d7 97 3f 4c 2d 1a 3f 2c 6c b0 be fd 27 47 bf
       1.1862547 0.6022537 -0.3445753 -0.7779539
000350 cb 7f da bd b8 06 6b bf 38 33 77 bf d8 0f 88 3e
       -0.10668906 -0.91807127 -0.9656253 0.26574588
000360 7a d3 5f 3f ed 8c 78 bf bd ba 7d bf 81 d9 8c 3f
       0.8743206 -0.97090036 -0.99113065 1.1003877
000370 18 b1 48 3e af 1c 57 bf 2d 69 98 3e 1c 4c 3d c0
       0.19598806 -0.8402814 0.29767743 -2.9577703
000380 dc fb 05 3e 45 08 0a 3f 11 5f 95 3f 1d 1f 81 3e
       0.13084358 0.5391887 1.1669637 0.2521905
000390 3e fb 10 be 45 6c ec be c8 0c 18 bf e5 6a 74 3e
       -0.14158341 -0.46176353 -0.593945 0.23868902
0003a0 f8 4e b8 be 19 21 16 3f df e0 ec 3e 1e 07 c4 bf
       -0.35997748 0.58644253 0.46265313 -1.5314672
0003b0 0d 4b d7 be 09 50 2b 3f 28 4c af 3f 51 c4 12 bc
       -0.42049447 0.66919 1.3695116 -0.008957938
0003c0 7e ab de bf 80 68 a0 bf 9f 7b 91 3f 18 10 49 3f
       -1.7396085 -1.2531891 1.1365851 0.7854018
0003d0 30 2f 0d 3f 18 4e 23 bf c4 a9 fb bf 81 4e 7e 3b
       0.5515013 -0.63791037 -1.9661183 0.0038804116
0003e0 b9 c6 ba 3e bf 9f 9f bf cb de 09 3f 99 f3 5a 3e
       0.36479738 -1.2470626 0.5385558 0.21381988
0003f0 7f de 40 3f be fe 88 bf b0 15 1c bf 98 7a 96 bf
       0.753395 -1.0702741 -0.6097059 -1.1756163

dense_31/MatMul_bias f4 [30]
000000 cc 93 89 be 52 8d 27 be 76 58 2a bf 64 61 10 b9
       -0.26870573 -0.16362503 -0.6654123 -0.00013769191
000010 c8 2f b8 3e c9 35 00 3d d0 05 01 bd 91 00 46 3e
       0.35973954 0.031301294 -0.031499684 0.19336154
000020 76 8c 58 3d 3c 35 53 be 5a 29 d9 be 47 58 23 bf
       0.05286833 -0.20625776 -0.4241436 -0.63806576
000030 90 d3 88 bd 3e cb e3 be b5 2a 3f bd c1 4a 09 be
       -0.06680977 -0.44491 -0.046671588 -0.13407423
000040 0a 56 fe be 24 02 18 be 26 c0 fe 3e 18 23 a2 be
       -0.49675018 -0.14844567 0.49755973 -0.316674
000050 c4 45 e3 be 5c a5 fb be 2d 81 97 bd 83 63 03 be
       -0.44389164 -0.49149597 -0.07397685 -0.1283093
000060 b0 e2 f9 be be 09 09 be c0 c8 b8 3e 15 cc 0d bf
       -0.4880576 -0.13382623 0.3609066 -0.5538953
000070 fe 00 fd 3e f2 b3 b2 bd
       0.4941482 -0.08725728

dense_31/kernel/transpose f4 [30, 30]
000000 e9 7b c9 bf 38 70 69 be 62 05 b7 3f b9 6f 19 3f
       -1.5740939 -0.22796714 1.4298518 0.599361
000010 07 98 83 bd 63 8a c6 3f 65 22 59 3f a6 15 6f be
       -0.06425481 1.5510982 0.84818107 -0.23348102
000020 22 19 a7 3f 91 47 56 3e 81 78 c4 3f df 8d b8 3f
       1.3054545 0.20925738 1.5349275 1.4418296
000030 7d 0e 98 bf 02 96 1b 40 02 67 ad bd 46 21 c7 3f
       -1.1879421 2.4310308 -0.08466913 1.5557029
000040 27 73 be be 87 e8 8e be ee c5 7a 3e 4a 97 fe bd
       -0.3719723 -0.2791178 0.24489567 -0.124312
000050 40 99 41 be b5 5d 0f 3e 29 6a 01 3f e7 9e 3d bf
       -0.18906116 0.1400059 0.5055261 -0.7407059
000060 5c cb d2 be 36 70 96 bf c2 38 bd be 3c b0 06 bf
       -0.41170776 -1.1752994 -0.36957365 -0.5261266
000070 9e ac 7d c0 3e ce d7 be e3 44 35 3f 75 2e 61 bf
       -3.9636607 -0.42149538 0.7080824 -0.8796151
000080 33 96 4a be 1d 49 57 3e 80 ee 36 3f 87 3a e0 3d
       -0.19783859 0.21023984 0.7145767 0.10948663
000090 d8 a2 8a bd 95 eb 85 bf fd 84 b7 3d 88 4f 8c 3e
       -0.06769341 -1.0462519 0.089609124 0.27404428
0000a0 29 19 91 bd b3 9e 17 bd dd 8f 6b bf 7e 29 9a bd
       -0.07084877 -0.03701658 -0.9201639 -0.07527445
0000b0 c2 92 42 3f 70 1f 29 c0 99 48 89 3f 43 78 a5 be
       0.76005185 -2.6425438 1.072528 -0.32318315
0000c0 32 8f 88 bf 37 44 ce be d1 f0 40 3f 2c cc 3f bf
       -1.06687 -0.4028642 0.75367457 -0.74920917
0000d0 3b 44 94 bf 22 e3 6b 3f 4e c7 13 bf ad 2e 2d 40
       -1.1583322 0.9214345 -0.5772599 2.7059739
0000e0 75 44 aa bf b7 00 da bb 29 cf 5a 40 10 28 48 3f
       -1.3302141 -0.0066529172 3.418894 0.7818613
0000f0 88 ef c3 bf 24 da c6 bb 80 3d 6a 3f c2 9c d0 be
       -1.5307474 -0.006068485 0.9150009 -0.40744597
000100 9e 8b 45 bf 91 d8 ef bc cc d4 31 3f b8 f9 3a 3f
       -0.77166164 -0.029278072 0.6946533 0.7303729
000110 1e d2 26 3f 20 c4 8c be de 48 bc 3e 41 3d db be
       0.65164363 -0.27493382 0.36774343 -0.4282017
000120 8d f7 01 3f f2 cf 2c 3f 17 33 3b bf 34 75 26 40
       0.5076836 0.675048 -0.7312483 2.6009035
000130 25 70 bd bf 56 86 43 bc cf 67 8f 3f 1e 48 a5 3e
       -1.4799849 -0.011933884 1.1203555 0.32281584
000140 9e 10 9f bf c2 41 a8 3e d3 31 81 3f f2 6c 8b bf
       -1.2426946 0.3286267 1.009333 -1.0892622
000150 46 97 22 3f d0 cc c6 bf e8 33 80 3e 08 ce 05 bf
       0.63512075 -1.5531254 0.250396 -0.52267504
000160 2b 3a 6b c0 3e a0 86 bf cf 5a 48 3e 1d 7c 14 bf
       -3.6754253 -1.0517652 0.1956589 -0.5800188
000170 54 a7 f3 3e 91 f0 7a bd 58 04 2f 3f f9 38 0a 3e
       0.475886 -0.06126458 0.68366003 0.13498296
000180 63 ab 5e bf 4c 2d 18 c0 a9 21 61 3e 1f 78 e8 3e
       -0.86980265 -2.3777647 0.21985497 0.45404145
000190 4d 64 e3 be 49 02 1d be 2a dc a9 bf 99 d3 2b bf
       -0.4441246 -0.15332903 -1.3270314 -0.6711975
0001a0 27 af 46 3e 0b d3 31 c0 1d 46 1f 3f 47 a0 63 3e
       0.19402753 -2.778506 0.6221636 0.2222911
0001b0 ec ff b3 bf 2e 06 b8 be 54 a7 ee 3e 5a a4 89 3e
       -1.4062476 -0.35942215 0.46612036 0.26883203
0001c0 e6 91 09 c0 50 73 80 3f 5b de 3c be 6a 57 0e 3b
       -2.14953 1.003519 -0.18444197 0.0021719583
0001d0 4c e7 be bf 47 3d d0 3e a6 f3 9a bf c2 87 90 3f
       -1.4914336 0.4067175 -1.2105606 1.129143
0001e0 e0 6b a3 3e d5 52 e4 3e f1 6b d9 bf e3 59 0e bf
       0.3191824 0.44594446 -1.6986066 -0.55605906
0001f0 fa 48 0f bd c3 48 a5 3d 03 19 87 bf d7 2c 69 bf
       -0.034981705 0.08070519 -1.0554508 -0.91084045
000200 1f d3 af 3c 41 4a 18 bd 99 4a 9a bf 49 7a 41 bf
       0.021462975 -0.03718019 -1.2054015 -0.7557722
000210 18 69 9d bf e0 97 ea bf 81 a6 55 bf f3 5c 36 3f
       -1.2297697 -1.8327599 -0.8345719 0.7123558
000220 dc 07 e9 3e 4f 4d 12 3f 53 00 15 3f fb de 08 3f
       0.4551381 0.57149214 0.5820362 0.5346524
000230 5b ca f9 be dc 5c 5c 3f 69 1a 03 be 7d 6f 99 be
       -0.48787197 0.8607919 -0.12803043 -0.2996787
000240 aa 07 70 3f 12 e4 5c bf ff 68 61 3f e8 85 38 3f
       0.93761694 -0.8628551 0.88050836 0.72079325
000250 c0 44 72 bf b6 da 43 bd e2 0a 64 3f 57 53 53 bf
       -0.94636154 -0.047816 0.89079106 -0.8254904
000260 7b 2a b2 be 00 d1 f6 3e 79 91 75 3f 5d ce 1b be
       -0.34798035 0.4820633 0.959251 -0.1521544
000270 a8 ca 36 3e d9 6b dd bf 77 c3 dc be 70 9b 14 3f
       0.17850745 -1.7298537 -0.43117878 0.5804968
000280 33 a1 86 3e 8a c8 78 3e c2 33 ba bf 79 f3 83 bd
       0.2629486 0.2429525 -1.4547045 -0.06442923
000290 fb 21 ab 3e 93 3e 26 c0 5b 24 84 3f a4 1a 2e 3e
       0.33424363 -2.5975692 1.0323595 0.1700235
0002a0 42 67 94 bf af c2 26 bf 0b ef 87 3f 00 1d 3d bf
       -1.1594012 -0.65140814 1.0619825 -0.73872375
0002b0 4f ae 91 bf 67 0d 30 3f 55 dd 10 bf 74 31 07 40
       -1.138132 0.6877045 -0.56587726 2.1123934
0002c0 3a 80 90 bf 1d 0d 76 3e bb 83 48 40 b6 a6 91 3f
       -1.1289132 0.2402844 3.1330402 1.1379001
0002d0 77 65 9d bf ed 81 56 bf 3e 98 f8 bd 69 89 23 3e
       -1.229659 -0.83792 -0.12138413 0.15970387
0002e0 ad 62 61 3f 6d 04 a2 3e 29 c6 02 3f e4 e7 b9 bf
       0.8804119 0.31644002 0.5108362 -1.4523892
0002f0 3a 2c b6 bd bb 69 00 3f 49 e8 f0 3e 05 9b 0c 3f
       -0.08895154 0.5016133 0.4705222 0.5492404
000300 1a ba a1 bf 32 89 1c 3f fa 1f 8d 3e 32 3c 27 c0
       -1.2634919 0.61146843 0.2756346 -2.613049
000310 06 7f 10 3f 2c 8f 5a bf e2 7a 86 bf 27 3a ff be
       0.5644382 -0.8537471 -1.0506251 -0.49849054
000320 d0 99 16 3f 2f 2f 61 bf bb a0 89 bf 18 d3 ec 3e
       0.5882845 -0.8796262 -1.0752176 0.46254802
000330 32 02 9f bf 59 d2 fc be 26 0e 78 bf e1 81 f7 be
       -1.2422545 -0.49379233 -0.9689659 -0.48341277
000340 af 09 cf bf c1 a2 78 be 1d 81 77 bf 3b 80 12 3f
       -1.617483 -0.24280836 -0.96681386 0.57226914
000350 8a 26 92 3f 65 5c 0d 3f 54 99 5e be ee f3 ce 3f
       1.1418011 0.5521911 -0.21738178 1.6168191
000360 c6 73 ce 3f 6d 4b 33 3f c7 05 bb 3f a1 a1 bf bd
       1.6129081 0.70036966 1.4611138 -0.09357
000370 d7 2f 7e 3f 03 6f 9a 3f 9e 40 13 bf 98 39 d2 3f
       0.9929175 1.2065128 -0.57520473 1.6423826
000380 14 95 ef 3e 5c 96 ce 3f ed bb 46 bf 97 e0 b3 3e
       0.46793425 1.6139636 -0.776305 0.35132286
000390 0c ee 76 3e c7 51 17 3f 3f 1a fe be 03 08 20 3f
       0.24114245 0.5910916 -0.496294 0.62512225
0003a0 bf c9 6e 3f 79 5d 8c be 13 df 00 3e 7a 14 c7 bf
       0.9327659 -0.27415064 0.12585096 -1.5553124
0003b0 e2 c1 1e bf 26 31 22 bf cb 3b 6e c0 1b a0 b3 be
       -0.6201459 -0.63356245 -3.7223995 -0.35083088
0003c0 76 59 23 bf 6e 4d a6 3e 12 42 4c be df 2d 0c be
       -0.6380838 0.3248095 -0.19947079 -0.13689373
0003d0 03 00 fb be 2d a2 d1 3c 2b ea 83 3f b1 ef 26 40
       -0.49023446 0.025590027 1.0305837 2.6083796
0003e0 29 4a 73 3d 55 d6 36 bf af c9 f3 3e 4e d6 85 bd
       0.059396897 -0.71420795 0.4761481 -0.06535016
0003f0 92 ce 01 40 da d7 71 3f 4d bf f9 be 17 30 36 40
       2.028233 0.9446999 -0.48778763 2.8466852

dense_32/MatMul_bias f4 [4]
000000 c6 c5 bd bd 3d f1 01 3e 9f dc 6c be a4 05 04 3d
       -0.09266238 0.12689681 -0.23131035 0.03223194

dense_32/kernel/transpose f4 [4, 30]
000000 de a5 85 3e 0d ee 86 bf 9f ae 84 3f 4b 8e 1e bf
       0.2610311 -1.0541397 1.036579 -0.6193587
000010 dc 74 26 be 9c bf 9e bf 76 15 8b be fd 6a ca 3e
       -0.16255516 -1.2402225 -0.2716481 0.3953475
000020 be 98 29 3f 69 a9 82 3e eb 0f d5 3e 65 b9 95 bd
       0.6624869 0.25519875 0.41613707 -0.07310752
000030 4b 3b 9a be bc 17 0f c0 15 59 7b bf e3 b7 05 c0
       -0.30123362 -2.2358236 -0.98182803 -2.0893486
000040 e8 56 75 3f fb 71 ac bf c3 bc 77 be 0c c8 94 bf
       0.95835733 -1.3472284 -0.241931 -1.162355
000050 6a 82 89 bf 99 21 35 3f 4d 86 b0 3e ce e5 02 bf
       -1.0742924 0.7075439 0.34477463 -0.51131904
000060 ce 6d f5 bf 69 55 ad bc b6 7d e5 3e bb f8 17 3f
       -1.9174135 -0.02115889 0.44822472 0.5936391
000070 aa d2 d4 3e eb ef 0c bf 26 36 11 c0 e0 11 51 3e
       0.41566974 -0.55053586 -2.26893 0.20416975
000080 50 65 b8 bf 34 1d 57 c0 cf 51 4d c0 00 07 4f be
       -1.4405918 -3.3611574 -3.2081182 -0.20217514
000090 a6 c1 5f c0 de 20 c6 bf be 3a a8 3f a4 21 94 3f
       -3.4961944 -1.547878 1.3142927 1.1572766
0000a0 3c 0a 0d 3f 86 f3 99 3f 19 16 9e 3f e7 9f 6e 3f
       0.5509374 1.2027442 1.2350494 0.9321274
0000b0 bf 50 5a bd fd 10 50 40 a0 80 34 c0 e5 40 34 c0
       -0.05329966 3.251037 -2.8203506 -2.8164608
0000c0 79 c3 47 c0 b5 18 26 c0 f3 28 6e 3f a3 46 9a be
       -3.1213057 -2.595258 0.93031234 -0.30132017
0000d0 1e 3f 3d c0 6f 26 95 3f e5 cf 45 3f d9 86 4b 3f
       -2.9569774 1.1652354 0.77270347 0.79502636
0000e0 38 31 8c c0 77 a2 1d c0 b1 3f 98 c0 5f 5f 63 c0
       -4.381008 -2.463041 -4.757775 -3.552696
0000f0 de 62 a6 bf d2 a9 c6 3d 99 89 bc bf 88 90 ac 3e
       -1.2998922 0.097003594 -1.4729491 0.3370402
000100 a3 f2 86 3e 63 d1 68 3e c1 fd 98 bf ec 98 60 bf
       0.26356992 0.22736125 -1.195244 -0.8773334
000110 20 53 93 bf 45 90 c1 bf ce 44 42 bc 95 4a 11 c0
       -1.1509743 -1.5122153 -0.011857225 -2.2701771
000120 5d b3 b5 3e b0 06 b2 3f d8 8f f6 3d 62 40 fc bf
       0.35488406 1.3908291 0.12039155 -1.9707148
000130 56 72 75 be 02 d9 b4 bf 27 d7 0e 3f 92 7b f3 3e
       -0.23969397 -1.4128726 0.55797046 0.47555214
000140 66 14 58 3f a5 07 a3 bf 37 fd 88 bf 2e 66 a2 3e
       0.84406126 -1.2736708 -1.0702275 0.31718582
000150 a1 d4 95 3f b9 19 94 3e e6 4d 77 3d 31 5f d6 bf
       1.1705514 0.28925875 0.060377024 -1.67478
000160 f0 e3 af 3d 0d 80 5f 3e ad 61 15 3d ea 82 fc 3e
       0.085883975 0.21826191 0.036470104 0.4931863
000170 94 86 8d bf 0b 39 42 3f 03 5f 16 bf 25 ec 52 3f
       -1.1056695 0.7586829 -0.58738726 0.8239158
000180 83 b8 6d 3f 91 77 0f 3e 3c 5a 75 bf 5e f7 0f bf
       0.9285967 0.14010455 -0.9584081 -0.5623683
000190 91 96 9a bf 55 44 e5 bd 5a c5 a5 bf 4e f3 09 c0
       -1.2077199 -0.11194674 -1.2950852 -2.1554751
0001a0 83 5b e5 3e 71 7f 8e 3f e6 b7 4e bf ae 1b a1 3f
       0.4479638 1.1132642 -0.80749357 1.2586572
0001b0 f2 65 41 bf d3 c8 2b 3f 29 7d 04 c0 57 5f ce bf
       -0.7554618 0.6710331 -2.0701392 -1.6122845
0001c0 de f3 ba 3e 62 a1 bf bf 1c 0c 92 bf 35 0e 9f bf
       0.3651418 -1.4971125 -1.1409945 -1.2426211
0001d0 51 0a 38 3e 1b 6c 1e bf 8e a5 a7 3e d5 67 37 3f
       0.17972685 -0.61883706 0.32743496 0.7164281
